vision_transformer_mnist.pth (torch, 577625 bytes, 56 tensors)

cls_token f4 [1, 1, 64]
00000000: 4f1a 253f 4fe0 31be a603 013f 2f23 753f
00000010: 957d 70bf 6897 13c0 5897 7a3f ff1d 853e
00000020: 5a4e 07be 1539 6c3f e5b7 5b3e a07b 22c0
00000030: 2b6f e63f 2964 cbbf 5674 e13e 9c85 f93e
00000040: a0d7 823f 80d7 d03f 696e de3d f618 b8be
00000050: b601 80be 3567 a03e 768a bbbe f39a a0bf
00000060: 8b57 f73d a5c6 08bf a966 c1bf 3d4c 223f
00000070: 406e 22bf 737a 86bf 9d7a 07bf 8b4e b33e
00000080: ab1c 3fbf 8624 103f d33f 4abf c684 03c0
00000090: 41d0 e1bd 6739 3e3f 7452 e4be 40f8 cbbf
000000a0: 1972 113f 5889 d9bf df30 8cbe 6081 743f
000000b0: a377 6d3f c740 9abf 2400 ab3e a643 a2bf
000000c0: ec15 b9be efa1 c83e b270 96bf 88e0 993f
000000d0: a82a 753f 9d8a 84be 71c9 863e 8574 b0be
000000e0: 1c23 aa3f 6cca 383a 2648 66be dd2c 0ebf
000000f0: 62a6 2d3f f530 0440 676e c1bf ff30 40bf
0.6449327 -0.17370723 0.5039619 0.9575681 -0.9394162 -2.306116 0.9788718 0.25999448
-0.13213482 0.922746 0.21456869 -2.5387955 1.8002676 -1.5889941 0.4403407 0.48734748
1.0222054 1.6315765 0.10860903 -0.35956544 -0.25001305 0.3132874 -0.36629075 -1.2547287
0.12077244 -0.5342811 -1.5109454 0.6339758 -0.6344948 -1.0506119 -0.5292147 0.3502086
-0.7465312 0.5630573 -0.7900364 -2.0549788 -0.110260494 0.7430634 -0.44594157 -1.5935135
0.56814724 -1.6995039 -0.27381036 0.9550991 0.92760676 -1.2051018 0.33398545 -1.2676895
-0.36149538 0.39186046 -1.1753142 1.2021646 0.95768213 -0.25887004 0.26325563 -0.34463897
1.3291965 0.0007049206 -0.2248846 -0.55537206 0.67832005 2.065488 -1.5111817 -0.7507476

pos_embedding f4 [1, 17, 64]
00000000: 2999 113e 8563 c63d 0599 fa3e 29d5 13bf
00000010: 39db d2bf cb11 db3f 31f4 723e 8ce3 7abf
00000020: bfab 5d3f 45fe 943f 834c 913f 538d 6b3f
00000030: 586b 9c3f b15a 2dbf 165a f9bf 5dd7 b8bd
00000040: 8bc3 08bf de9e 7bbf 5494 0ebf c41f 63bf
00000050: 75d8 8c3f a190 283f 746d c0bd f599 8e3e
00000060: 9de5 3a3e eb9b 053f e354 32be fba3 e3bd
00000070: 10b7 1540 7b96 8fbf 34df 51bf 3737 1f3f
00000080: b3f9 b5bf 5d00 1dbe 2df9 863f 47c3 1740
00000090: 77f6 0140 d4ab 56bf 856c 883c 6d75 13bf
000000a0: 03dc dabe eb6e 1f3f 4c15 853f 70be dabf
000000b0: 0045 c63e bb11 29bf 8f1d d6bf 0422 31be
000000c0: 4ffb 163f 630e 93be d053 67bf fd4f df3d
000000d0: ab17 6b3f bd6d 8c3d 9cf2 d93e eabc febf
000000e0: 7aa2 3e3f 5a41 343d e3ed 0d3d 2b41 843f
000000f0: a499 193f 1b6a 12bd 96f0 03bf c582 52bf
00000100: ffd8 0bbf dd56 0bbf a451 59be 2ead 57bf
00000110: 4cfc 75bc 7030 efbf e7e5 fabe 07ea e53e
00000120: 40ce fa3e eb93 403e 903a 193d 6815 0e3f
00000130: 9eec e43f c73b f8bd d1b9 17bf 32cb 3abf
00000140: 8594 a13e bac3 8b3f bccb 773f 695c 1240
00000150: 8d7a 9cbc b70f 29bf b371 5abe 7ebe 69bf
00000160: 2b61 6dbe fc9c 76bf 20d9 1e3e bb70 1440
00000170: aeea 93bf 5d2f 6d3f bf34 a5bf 2937 b6bd
00000180: 5457 023f 709b 6b3f e5b3 353f 8e10 913f
00000190: ee02 1ebe 0ca5 3cc0 729c 68bf 710b 073f
000001a0: bd19 08bf b7ac 443e 7e27 a33e 84aa 7abf
000001b0: e1b3 813e f7b5 49bf 0839 d2be f569 3b3f
000001c0: 6b57 b6bf d27a b3bd f253 11bc 096c 2c3f
000001d0: 4018 1cc0 4783 ee3f 20ba 0dbd 7ba9 91be
000001e0: c1c0 70bf ccb6 1a40 b046 843d 1195 433e
000001f0: d993 e33c c300 333f a39c a33f 2b9c f23e
00000200: 90b8 153e 7ba8 4d3f d8a9 143f 2539 713e
00000210: 7544 f03e 97f1 acbf 1060 46bf 43a6 ff3e
00000220: cd41 053e 9e52 e13e dee1 d03e a4b2 1bbf
00000230: bd45 a33d b578 b23e 499e fc3e 16d5 9cbf
00000240: b5df 0c3f 1c73 593f abc1 0f3e e106 96be
00000250: 5940 97bd 60ff 9d3f b0e2 2b3e 3e50 843f
00000260: 25bb a2bf e054 2ebf 5884 15bf a84c c93e
00000270: 4e31 24bf e3fe 0f3f e3e1 6bbd 3531 14bf
00000280: dc9e 60bf d94a 463e e164 953d 259a 43bf
00000290: 7ff2 793d cea8 c93f 2cb8 06bf 6ce3 a63f
000002a0: 529e fe3f c881 ab3f 39eb f1be 9ff2 343e
000002b0: a21a 8b3e 1af5 35bf a535 bbbd 5090 d2bf
000002c0: 9c9f 07bf 7f46 be3e 017d e03f 6f90 f8be
000002d0: 5c61 d53e 8a38 86be 7cf7 2ebf 55fc 673e
000002e0: 60b2 b8bf b72b 89be 7849 1fbf 47f4 bcbf
000002f0: 3edc 69be 971f 09bd de99 96be 50fb eabe
00000300: fcea ec3e d36e 53be 5140 5abf 67e9 5bbf
00000310: 9bf3 66bf 21d1 273d f91e 573f 0daa a03c
00000320: 0dd2 9abd d76b 6a3d 0841 9f3d 734a a7bd
00000330: 0518 163f 1e6d fa3f 2d42 9a3f 47a5 2fbf
00000340: c95a 1cbf e60c 65bf 75fb 23bf 49ad 4b3f
00000350: 7dd5 d43c 8a1a 8dbf 72ac d9bf d8a2 443f
00000360: fbf7 49bf c8ae 7ebf b0cd 3abe ba2f 22be
00000370: f371 55bf 13df aabf bb86 103e 87d8 f43f
00000380: 4cb7 5ebe 66eb 663e 311a 083d f092 babe
00000390: 7599 0fbf 37dd 453f 0cd6 143f 85ad 57bf
000003a0: 37e4 d33e 074e cb3e 4b30 03bf 689e 753f
000003b0: 816c bbbd db14 89bf 428c b13e 19a6 383f
000003c0: 2ff3 7d3e dc1c 0140 f259 0840 eb23 fcbc
000003d0: 6d19 6fbe 4f94 40be 9a0d ae3f 7111 613f
000003e0: af2f de3e cb25 2abf 185c 09bf 0bff b0bf
000003f0: 2d5f 883f 7272 25bf 6dca ee3e 26ea 35bf
0.14218582 0.096869506 0.4894487 -0.5774713 -1.6473151 1.7114805 0.23725964 -0.9800346
0.8659019 1.1640097 1.1351475 0.9201252 1.2220259 -0.6771651 -1.9480617 -0.09025452
-0.53423375 -0.9828929 -0.5569508 -0.88720345 1.1003557 0.65845686 -0.093958765 0.27851835
0.18251653 0.52191037 -0.17415194 -0.11115261 2.3392982 -1.1217798 -0.81981206 0.62193626
-1.4216827 -0.1533217 1.0544792 2.3712938 2.030668 -0.8385594 0.016653309 -0.5760105
-0.4274598 0.6227862 1.0397124 -1.7089367 0.38724518 -0.6604268 -1.672777 -0.17298132
0.58977216 -0.28721914 -0.9036226 0.109039284 0.9183299 0.068568684 0.4256791 -1.9901402
0.7446667 0.044007637 0.034650695 1.0332388 0.6000006 -0.03574572 -0.5153898 -0.8223079
-0.54627985 -0.5442942 -0.2122255 -0.84248626 -0.015013766 -1.8686657 -0.49003527 0.4490511
0.4898548 0.18806426 0.037409365 0.55501413 1.788471 -0.121207766 -0.5926791 -0.729663
0.31558624 1.0919106 0.9679525 2.2868903 -0.019101406 -0.66039604 -0.21332435 -0.91306293
-0.23181598 -0.9633329 0.15512514 2.3193805 -1.1555994 0.92650396 -1.2906722 -0.0889724
0.509145 0.92034054 0.7097762 1.1333177 -0.15430805 -2.9475737 -0.90863717 0.52751833
-0.53164274 0.1920651 0.31866068 -0.97916436 0.2533255 -0.7879328 -0.41059136 0.7320855
-1.4245428 -0.087636605 -0.008870112 0.6735235 -2.43898 1.8633813 -0.03460133 -0.28449616
-0.9404412 2.417407 0.06458795 0.19099833 0.02778046 0.6992304 1.2782177 0.47384772
0.14621186 0.80335206 0.5807166 0.23556955 0.4692723 -1.3511227 -0.7749033 0.49931535
0.13013382 0.44008344 0.40797323 -0.6081946 0.07972286 0.34857717 0.49339512 -1.2252529
0.5502885 0.8494127 0.14038722 -0.29302123 -0.0738532 1.2343559 0.16785693 1.0336988
-1.2713362 -0.6809826 -0.58405066 0.39316297 -0.64137733 0.562483 -0.05758847 -0.57887584
-0.877424 0.1936449 0.07294632 -0.7640708 0.061022278 1.575464 -0.52624774 1.3038154
1.9892066 1.3398981 -0.47249773 0.17670678 0.27168757 -0.7107712 -0.09141091 -1.6450291
-0.5297792 0.3716316 1.7538148 -0.48547694 0.41675842 -0.2621501 -0.6834638 0.22654851
-1.4429436 -0.26791164 -0.6222148 -1.4762048 -0.22837922 -0.033477392 -0.29414266 -0.4589486
0.4627303 -0.20647745 -0.8525439 -0.8590302 -0.9021546 0.040970925 0.84031636 0.019612337
-0.07559595 0.05723175 0.077760756 -0.08168497 0.586304 1.956455 1.2051445 -0.6861157
-0.6107603 -0.89472806 -0.6405557 0.7956129 0.025980705 -1.1023724 -1.7005751 0.7681098
-0.78894013 -0.99485445 -0.18242526 -0.15838519 -0.83377 -1.3349327 0.14113896 1.9128579
-0.2174961 0.22550735 0.033228103 -0.3644023 -0.5609353 0.7729067 0.5813911 -0.84249145
0.41385052 0.39707968 -0.51245564 0.95944834 -0.09151555 -1.070949 0.3467732 0.72128445
0.24799798 2.0173864 2.1304898 -0.030778846 -0.23349543 -0.18806575 1.3597901 0.8791724
0.43395755 -0.6646392 -0.5365615 -1.3827833 1.0654045 -0.64627755 0.46638814 -0.7106041

patch_embedding.patch_embed.weight f4 [64, 1, 7, 7]
00000000: 4f0d 8abd 0193 43be 2cfb ed3c 3ff1 a7bd
00000010: 1361 863d 779f 9bbe db29 c5be d0dd 09be
00000020: 5be8 4fbe 556a 5a3e be3f 35bd 5cdc 983d
00000030: 6ae5 04bd 36ac 47bc 17ba 4bbe 0542 8f3d
00000040: bf31 183e 193b 683d 9713 cd3c 217b 5c3c
00000050: cf6b 17be 834a 1fbe 3fe2 0f3e 784d 643e
00000060: 179a 1a3e 3aab 103e 0d97 ea3d 3ebd 1b3d
00000070: 612d 24bd 3d64 7e3d 3c85 be3d 2b1a f93d
00000080: 95b2 a9bd 8763 98bd 5efb 8bbd 8750 1e3e
00000090: dd0e 503e 70ff 103e f9de 1bbd 30f1 d63c
000000a0: 3502 dc3c 41c5 003e 843f 153e bd0c 1d3d
000000b0: b47e 233e 56c3 f13d c175 283e dc3c 063e
000000c0: ca38 cbbd 2ae1 93bd d492 a93d 13d1 753e
000000d0: e99d b43d 773c a33d c36b 20bd 7ff3 e7bd
000000e0: 800d 5fbd 1bd0 adbd 5160 223e cbc5 5f3e
000000f0: d5f3 64b8 ea57 3bbd 7cfc 05be 9f45 acbe
00000100: 2482 23be c90a b5bd 5ae9 c1bd 2241 debc
00000110: 87bc eabd 2789 76be cf69 cabe 2325 16be
00000120: 327e 96be 08b0 96bc 38a4 013d 665d 86bd
00000130: e74e 64be d427 08be eca3 43be c6a4 f7bd
00000140: 0aaa f6bd 8df2 f7ba 61bc 75bd 7428 a9bd
00000150: e5e8 38be b738 44bd ab65 00be caa9 95bd
00000160: 1981 01be c101 69bd 30a4 06be 108a 3e3e
00000170: 993f 823e 5619 3a3e e397 133e e793 473e
00000180: d8e4 29bd 02c7 08be 9be5 543e ae85 d7bc
00000190: 595e b73d 13f3 d73d 429b 0b3e b102 473d
000001a0: 3472 e23d a69e 643d e09b e93b dfd2 b6bd
000001b0: cb9a 8e3d 2425 16bd 541f be3d fd3d c33c
000001c0: fa01 e03d f902 3d3e 8ee1 64bb c8dd 70be
000001d0: f5e9 41be 43ed 6fbd a449 20bd cfa9 813e
000001e0: 3e1b d83d da70 d03d 4750 21be 53f5 72bd
000001f0: 4fa7 e3bd acc8 70bb 4e56 3b3e 7816 2d3e
00000200: f7f2 b4ba 6776 0abe 823b 593c 8645 033d
00000210: 3136 6d3e 8103 f33d 74f2 70bd 4085 1cbe
00000220: a9ec f8bd 39ee 103e f0db 4c3e 4a3a 8e3e
00000230: 9176 a0bd ea31 34be 025e d5bd 8fbc e2bd
00000240: c9ea 153e f536 783c 1cf1 683e e87d 0abe
00000250: 884b 51be 0c68 29bd f7e1 193e d329 503c
00000260: ef80 ef3d a6c1 053e 1693 643d 29db 7abc
00000270: 848b 9a3d ff4f 073e 6ffd 0b3d 676c 1abe
00000280: 8112 513d d45e 4e3e a2de ea3d f7f9 723e
00000290: 414b c13d 27b9 2c3e 4666 0e3e 5bad c1bd
000002a0: 9c7c ee3d c8c9 a53e 96eb 7c3e f57d 863c
000002b0: 93bb 903d 25a8 45be 11d9 9fbe 8480 353e
000002c0: 17fe 483e 6ba6 533e 036e dd3d 0746 f7bd
000002d0: 7d7b 6fbe 8e5d 71be e742 853b 6b20 4b3c
000002e0: da2a cc3d 2ed2 a83d 1e9a 23bd a221 82bd
000002f0: 792c 2abd 114a 65bd db4a e03d 8546 053e
00000300: 8d48 503d f504 343e cdd6 27bd 71c0 32bd
00000310: f72f 093d 6622 023e cc0f 0bbe 9b6a 163d
00000320: 6f88 19be 7ce5 9cbc 6404 dabd c347 4bbd
00000330: 8dd8 ebbc b36e bdbd 8e9b 9bbc 1766 3ebe
00000340: 0577 20be 001d dd3d 2cd3 f7bd 8d0d 0bbc
00000350: fcce 803d 037f 913d be44 78bd 44f9 233d
00000360: 076c 073d dc2e e8bc 6f97 a33d b04d ab3d
00000370: 9af7 e0bd c859 debd 6c67 ecbd 4338 823d
00000380: 4966 063e 56ca eabc 411b 54bd 2f1c 16be
00000390: 7c6a bcbd ae28 813d d991 18be 5d02 2a3e
000003a0: abe1 53bd 3f37 c23c 8237 91bd 44bb e4bd
000003b0: 2352 54bd 7c3c 083e a587 9c3d 304c 383d
000003c0: fae2 e3bd 1fea 4a3d f3a4 d93d cbf4 1c3e
000003d0: f4b1 883e 4ed8 f9bc ce33 b2bd 9488 92bd
000003e0: 7bb9 18be 5eed 4dbd ea33 60bd d642 88be
000003f0: 1cc6 3b3e dce4 07bd 3ab5 cebd ba3e 403d
-0.0674082 -0.19099046 0.029050432 -0.08200311 0.06561484 -0.303951 -0.38508496 -0.13463521
-0.2030348 0.21329625 -0.044250242 0.07463905 -0.03244535 -0.012187054 -0.19895206 0.06995014
0.14862727 0.056696985 0.025033755 0.013457091 -0.1478722 -0.15555768 0.1405115 0.22295177
0.15097843 0.14127818 0.11454592 0.038022272 -0.04008234 0.062107313 0.09302756 0.12163194
-0.08286015 -0.07440858 -0.06835054 0.15460406 0.2031817 0.14159942 -0.03805444 0.026238054
0.026856521 0.12575246 0.1457501 0.038342226 0.15966302 0.118048355 0.1645117 0.13109154
-0.09922941 -0.07220681 0.08279958 0.24005537 0.088191815 0.07970517 -0.03916527 -0.1132574
-0.054456234 -0.084869586 0.15857054 0.21852796 -5.4586522e-05 -0.04573814 -0.13084596 -0.33646867
-0.15967613 -0.08839948 -0.094683364 -0.027130667 -0.1146174 -0.24075757 -0.3953385 -0.14662604
-0.29393154 -0.018394485 0.03165075 -0.06560783 -0.22295724 -0.13296443 -0.191055 -0.12091975
-0.12044151 -0.001891689 -0.059994105 -0.08259669 -0.18057592 -0.04790565 -0.12538783 -0.07307775
-0.12646903 -0.05688644 -0.1314857 0.18607354 0.25439146 0.18173727 0.14413409 0.19490014
-0.041478008 -0.13357165 0.20790713 -0.02630886 0.08953542 0.105444096 0.13633445 0.04858655
0.11056939 0.05581536 0.0071291775 -0.08926939 0.06963118 -0.036656514 0.09283319 0.02383327
0.10937877 0.18458165 -0.003492448 -0.23522103 -0.18936904 -0.05857588 -0.03913273 0.25324866
0.10552071 0.10177775 -0.1575328 -0.05931599 -0.11115896 -0.0036740704 0.18294641 0.16903102
-0.0013805319 -0.1352173 0.013258817 0.032048725 0.23165204 0.11865903 -0.05882497 -0.15285206
-0.12154514 0.14153375 0.20005774 0.27778846 -0.07835115 -0.17597166 -0.10418321 -0.11071121
0.14640345 0.0151498215 0.22748226 -0.13524592 -0.20438969 -0.041358992 0.15027605 0.012705284
0.11694514 0.13062152 0.055804335 -0.015311041 0.07546142 0.1321411 0.03417724 -0.15080415
0.051043037 0.20153362 0.11468245 0.23728167 0.09438182 0.16867505 0.13906202 -0.09456893
0.11644861 0.3238051 0.24699244 0.016417483 0.07067027 -0.19302423 -0.31220296 0.17724806
0.19628178 0.20668952 0.10811999 -0.120739035 -0.23386951 -0.23570845 0.0040668133 0.012397866
0.09969111 0.082432136 -0.0399419 -0.06354071 -0.04154632 -0.05597884 0.109517775 0.13015182
0.05085044 0.17580016 -0.040976334 -0.043640558 0.03349301 0.12708434 -0.13580245 0.03672276
-0.14993452 -0.019152395 -0.10645369 -0.049628984 -0.028789783 -0.0924963 -0.018995073 -0.18593632
-0.15670402 0.10796547 -0.12100825 -0.0084871175 0.06289479 0.07104304 -0.060612433 0.04003264
0.033062007 -0.028342657 0.07987868 0.08364427 -0.10984726 -0.10856968 -0.11543164 0.06358387
0.13124956 -0.028660934 -0.051783804 -0.14659189 -0.09199998 0.06306587 -0.14899386 0.16602464
-0.051728886 0.023707984 -0.070906654 -0.111685306 -0.051836144 0.13304323 0.0764306 0.044994533
-0.11127277 0.04953968 0.10627165 0.15327756 0.26698267 -0.03049865 -0.08701287 -0.071549565
-0.14914505 -0.0502752 -0.05473701 -0.26613492 0.18337291 -0.03317724 -0.1009316 0.04693482

patch_embedding.patch_embed.bias f4 [64]
00000000: d527 cfbd fc04 0c3e a7cf d9bd 99ff 34bd
00000010: 5b0f 113e 96ff 843b ea7a 8c3c c262 913d
00000020: 42ca db3d 9a76 ba3d 55be a1bd 5ad3 69bc
00000030: c263 d8bd a25c c7bd c6fd 80bd 7d64 d63d
00000040: 5b45 ed3d b2a9 bb3d e5af fabd 71a5 db3c
00000050: e2b1 89bd c0c5 cebd c4c5 e73d 65df 25bd
00000060: 8b2b 213d 0d84 8ebd c970 4fbd d8ec 973d
00000070: cad3 f13c fb8e 383d cac5 be3d bfe8 debd
00000080: 6996 83bd 8460 583d 08cd c7bd 326d b63d
00000090: 394b d1bd 28c6 01be 9cda b3bd e77a f93d
000000a0: 557b e6bc b158 19be 0709 0d3e 5d90 043e
000000b0: 73a7 853d c19c 043e 7842 db3c e281 073e
000000c0: 2fc4 80bd 8e04 35bd 564f 03bc 17d6 9a3d
000000d0: 1381 e03c fdba 523d 3306 d03d 683f 94bd
000000e0: 816f 5ebd cc05 f53d cf68 c7bc 7cab a83c
000000f0: dcfe 71bd 7f1f b93d c608 1d3d 004c 6c3d
-0.10115019 0.13673776 -0.1063531 -0.04418907 0.14166014 0.0040587885 0.017148454 0.07098915
0.10731937 0.09104653 -0.07897631 -0.014271582 -0.10565902 -0.09734465 -0.062984034 0.10468385
0.11585494 0.09163226 -0.122405805 0.026812287 -0.067233816 -0.100963116 0.11317018 -0.04049625
0.039348166 -0.069587804 -0.05064467 0.07418221 0.029519934 0.04505823 0.09315069 -0.108842365
-0.06425173 0.05282642 -0.097559035 0.08907546 -0.10219426 -0.12673247 -0.08781931 0.12181645
-0.028134981 -0.1497524 0.13772975 0.12945695 0.06526079 0.12950422 0.026765093 0.1323314
-0.06287419 -0.044193797 -0.008014521 0.07560366 0.027405297 0.051447857 0.101574324 -0.07238656
-0.054305557 0.11963996 -0.024341969 0.020589583 -0.059080943 0.090392105 0.038338445 0.057689667

transformer.0.layer_norm1.weight f4 [64]
00000000: 3dac 5b3f 7247 833f c7f6 803f 2935 873f
00000010: e5dc 643f bc41 833f bbb6 723f 3f36 803f
00000020: d65a 6a3f d6b2 663f 7fcf 703f a5a0 683f
00000030: 9250 803f 860a 713f 4bd6 7f3f acb2 763f
00000040: 6ad1 793f a0a0 703f ad5e 873f 7b0e 713f
00000050: 1521 683f 533c 723f 593a 713f 770e 863f
00000060: 49ec 703f 4a95 8b3f 4c53 7c3f 41ba 813f
00000070: 960c 5f3f 1344 643f 2ec2 763f d338 703f
00000080: 0adc 6d3f cbf1 8a3f 0c3f 6b3f 38af 793f
00000090: 5706 683f c892 733f 9f4e 763f b23b 7c3f
000000a0: abb4 803f 83a7 803f bad4 7c3f c484 853f
000000b0: b8d4 773f da21 7a3f d045 713f c7fa 6c3f
000000c0: d62f 6c3f 1d86 6f3f c928 723f 3ce9 863f
000000d0: 1381 703f 73e4 863f dbd4 803f 79cb 693f
000000e0: 5f29 6b3f 6fc7 8a3f d5a2 923f d695 783f
000000f0: 2b8a 6b3f 7882 7c3f 70ac 853f 588b 7e3f
0.8580969 1.0256178 1.007531 1.0563098 0.8939956 1.0254436 0.94810075 1.0016555
0.91544855 0.9011663 0.94066614 0.90870124 1.0024588 0.9415668 0.9993636 0.9636638
0.97585166 0.93995094 1.0575768 0.9416272 0.9067548 0.946233 0.94229656 1.0473164
0.9411054 1.0904934 0.985646 1.0134965 0.8712858 0.89166373 0.96390045 0.93836707
0.9291388 1.0855039 0.91893077 0.9753299 0.90634674 0.95145845 0.96213716 0.9852859
1.0055135 1.005112 0.98762095 1.0431142 0.9680896 0.97707903 0.9424715 0.92570156
0.9226049 0.93564016 0.94593483 1.0539927 0.9394695 1.0538467 1.0064958 0.913261
0.9186 1.0842112 1.1455942 0.9710363 0.920077 0.9863658 1.0443249 0.9943137

transformer.0.layer_norm1.bias f4 [64]
00000000: 1933 cfbc d523 013d aa5c cfbc 5243 bebc
00000010: ebe7 e53c df49 0dbd 7939 ee3b dc7a f23b
00000020: 1753 b13d c68f 0fbd 7dae 80bc 35ec abbc
00000030: 3a92 3cbc f39c 3bbd 4b74 13bc edbc f8b9
00000040: 0954 843b d114 abbc c03d 9d3b 315c 97bd
00000050: 76e1 923d 22eb 08bd e54a 443c 24d3 babc
00000060: ee0c 663d b39d 7abd 5f6b e2bb 99e4 05bd
00000070: 53c0 2c3d 5e1f 2a3d 3848 333d ee5c 3b3d
00000080: f9e4 353d c940 48bc 81ff b63d 41a0 2fbd
00000090: 8eb6 25bd c1d5 09bd 9ffe f23c 8c17 d53d
000000a0: 8691 2abd 4f72 ccbc 9605 5cbc 60ec 5bbb
000000b0: cf02 b2bd 72be 0d3c 84f3 33bb 34a5 613d
000000c0: 8fad be3c 22ba b2bd e632 633d dde6 b638
000000d0: 60b6 4fbd 0da7 ba3c bde1 853d 56f3 25bd
000000e0: e5fc d2bd 7295 3dbd 9662 4e3c 17a6 b0bc
000000f0: 3527 7d3d 76a5 2bbd 7e24 5cbd fcf7 aa3d
-0.02529292 0.031528313 -0.02531274 -0.02322546 0.028064689 -0.034494277 0.007270035 0.0073999
0.08658426 -0.035049222 -0.015708202 -0.020986656 -0.0115094725 -0.045803975 -0.008999894 -0.00047443007
0.004038338 -0.02088395 0.004798621 -0.07390631 0.071719095 -0.033427365 0.011980747 -0.022805758
0.056164674 -0.06118555 -0.0069097723 -0.03268871 0.042175602 0.04153382 0.043770045 0.04574292
0.04440782 -0.012222477 0.08935452 -0.04287744 -0.0404573 -0.033651117 0.029662428 0.10404882
-0.04164269 -0.02495685 -0.013429066 -0.0033557639 -0.08691942 0.008651363 -0.002745838 0.05508919
0.023276119 -0.08726908 0.055468462 8.721438e-05 -0.050711036 0.022784734 0.06537197 -0.040515266
-0.10302142 -0.0462851 0.012596747 -0.021563573 0.06180497 -0.041905843 -0.05374574 0.083480805

transformer.0.layer_norm2.weight f4 [64]
00000000: 4cbc 5c3f 9937 833f d208 793f 7746 7a3f
00000010: 8ab1 4a3f 367c 883f 2102 553f 976f 843f
00000020: d0fc 783f cc00 7e3f f2b3 6f3f 5d1d 673f
00000030: 475d 653f a08e 703f bba0 813f b96b 623f
00000040: 3e0e 703f 7305 643f 4173 863f 5b7b 6d3f
00000050: c8e9 6a3f cc59 6d3f 6302 5d3f ed60 733f
00000060: 5d0c 733f b545 853f eca3 803f d040 793f
00000070: 661a 703f d295 5f3f 2525 7a3f 7d68 6b3f
00000080: 58d1 803f 35c1 803f 6bfb 7e3f d2a6 853f
00000090: d347 6e3f 07c7 733f 62eb 6e3f 091e 7c3f
000000a0: 8728 833f 1bac 813f dc1d 8a3f 31c0 7d3f
000000b0: cc8a 5f3f 95e8 783f 5bb9 5d3f beca 633f
000000c0: c8c3 893f e4e4 543f 167e 5f3f 7d88 833f
000000d0: 43be 753f 8e54 783f 2a76 5c3f e879 653f
000000e0: 0043 6f3f cc17 953f 62d1 893f f45b 793f
000000f0: a847 703f 0f67 893f ac37 803f 43c0 8d3f
0.8622482 1.0251342 0.97279084 0.9776377 0.79177153 1.0662906 0.83206373 1.0346555
0.9726076 0.99219966 0.9363395 0.9027918 0.89595455 0.9396763 1.0127176 0.8844562
0.9377173 0.89070815 1.0503923 0.9276635 0.9176297 0.92715144 0.86331767 0.9506977
0.9494074 1.0411898 1.0050025 0.9736452 0.9379028 0.8733798 0.9771293 0.9195631
1.0063887 1.0058962 0.99602383 1.0441535 0.93078345 0.95225567 0.93327916 0.9848333
1.0246743 1.0130647 1.0790362 0.99121386 0.8732116 0.9722989 0.86610955 0.88981235
1.0762873 0.8316176 0.87301767 1.0276028 0.9599344 0.9700402 0.86117804 0.8963914
0.9346161 1.1647887 1.0767024 0.97405934 0.9385934 1.0734576 1.001699 1.1074299

transformer.0.layer_norm2.bias f4 [64]
00000000: 44f9 173e 683d 9fbd fb33 703d b303 28bd
00000010: 2284 80bd 7dbd 88bd 9cb4 0fbd 7cc0 003d
00000020: dde2 3ebd a173 163e be06 b3bb 4d67 8ebc
00000030: b5a9 07bd 5145 e5bc 4834 bc3c 808a b33d
00000040: fa99 b03a f2b2 24bd 5960 98bd 815d 24bc
00000050: 683b 46bb b7c0 fa3d 6cca c3bd b0cf 6e3d
00000060: 4300 003e 438c 10bd 20ab afbd 30c2 8cbd
00000070: 4e23 0bbe 4341 813d 07fc dfbd bed4 89b9
00000080: 799e e8bd 5185 00b8 bb55 0ebd 65c7 03bc
00000090: 12de 1f3e 10e8 773c f5a4 39bc 8e34 25bd
000000a0: 0def 2f3d 6a46 5cbd 672b 933d 834a 983c
000000b0: 2bb7 cdbc c1e5 e83c c0b5 8abd 6444 6dbd
000000c0: e8f3 cbbd dd27 633d d7f9 9dbd 864a ca3d
000000d0: 02f7 773d bad9 a2bd fa88 993c a182 f63c
000000e0: bdb0 2a3d 251f e83c 4876 dbbc 6928 d9bd
000000f0: 11fa b53c 643f 693d fa7e 053d 986d b4bd
0.14841181 -0.07775384 0.058643322 -0.041019153 -0.06275202 -0.06676767 -0.035084352 0.031433567
-0.046603072 0.14692546 -0.00546345 -0.017383242 -0.03312083 -0.027987154 0.022974148 0.08766651
0.0013473623 -0.040209718 -0.07440252 -0.010032059 -0.0030247811 0.12243789 -0.09560093 0.058303535
0.125001 -0.035290014 -0.085775614 -0.06872976 -0.13587686 0.06311276 -0.10936742 -0.00026289182
-0.11358351 -3.064174e-05 -0.034749728 -0.008043145 0.15612057 0.015131012 -0.011330833 -0.040333323
0.042952586 -0.05377809 0.07186013 0.018590217 -0.025111755 0.028429868 -0.06772947 -0.05792655
-0.09958631 0.05545794 -0.07713669 0.098774955 0.0605383 -0.07951684 0.018742073 0.030091586
0.041672457 0.028335163 -0.0267898 -0.10603411 0.022213968 0.05694522 0.032591797 -0.08809966

transformer.0.multi_head_attention.in_proj_weight f4 [192, 64]
00000000: bba8 ca3d b318 0ebe 63a5 013e d016 b83d
00000010: 5d07 6d3d 0e10 32be d238 2f3e feee eabd
00000020: ec9d b7bd 7643 973d 09e0 09be ba50 c53c
00000030: 49bd 28bd 31c0 94bd 72ec 883d b64d 75bd
00000040: 5cc1 253d 9edb 4dbd 0c82 1fbe 8f85 403d
00000050: a746 e3bd c202 bc3d b60b 833d b0de 2abc
00000060: db23 123e c21d b8bd 9fa7 81bd 39b5 0dbe
00000070: 194a 61bc 2ada db3d d4c7 6bbd fe2c e13d
00000080: e03f 17bd e52e 443e 06e0 b93d 66eb 043e
00000090: 4bbd 533d d136 293e 8a85 5e3b 929c 433d
000000a0: 6ee6 02be 5701 503d f602 603c cb29 67bd
000000b0: aec3 8a3c 38c2 babb 2cae 21bd a79c 4b3d
000000c0: eff7 8fbd 7eb8 43bd 3167 7abd 8b0d 9fbd
000000d0: 9532 2abd b790 3dbd e0a3 a8bd 03cc 3bbd
000000e0: 59ba 92bd da02 d0bd e601 8cbd 3262 d9bd
000000f0: 9117 80bd 4364 77bd 2868 f5bd 06d4 f6bd
00000100: 52e7 c93d 0b91 5dbe f80e 873c 6a00 11be
00000110: 47a1 a13d 3019 983d 5e60 153e ad8d 2f3e
00000120: 4ebf a43c ffd9 26be 66fd 1fbe 4951 3b3d
00000130: 924c c3bd 5e4c a63d 665f a43d 61a4 17be
00000140: 060a 9dbd 18bb ba3d 03e3 433b e75a 7e3d
00000150: d4f9 e33d 2cf7 8b3d e4f5 0e3c cffb b3bd
00000160: 5c8c 74bd 420d 7abd c2b1 ddbd 3712 3cbc
00000170: eedc 7abd f2a0 e0bd 9391 fd3d 7867 48bd
00000180: 41df 113d c470 1ebe ceeb d2bd 8b29 ca3d
00000190: 54ed 97bc 9e33 f4ba 15d7 bfbd fe3a 413e
000001a0: cd97 b7bb 6614 da3c 238a 0d3e 2ff0 6a3e
000001b0: d82f 62be 3b85 f3bd 16a3 00be f79b 47be
000001c0: c99f 41bd 42e4 65bc db70 bd3d 8f1e b13d
000001d0: c348 5cbe 7907 ec3d e1f2 bf39 260a 0abe
000001e0: 6dfa 843d 384b 0bbe 9d45 73be 9cf9 1bbe
000001f0: ce0b 073e 7205 b53d 9b8f 233e a071 80bd
00000200: f824 ab3d a08d 113e bbcc 2c3d 674b d7bc
00000210: 7a21 f0bd 8386 91bd 336d 0c3e c297 b73d
00000220: 8b50 f83d e8f5 a9bd 9c85 27be 88f3 053e
00000230: 7c68 06be 4954 3fbe 48ae d2bd 28bc b43d
00000240: dd70 af3d 240e 363a 90f0 49be ee32 ddbd
00000250: 1b4e c43c edec 063e 5b39 453b 5624 61be
00000260: 039c 83bc 78b2 613e 8356 043d d874 023e
00000270: 365c 50bc 5779 94bd 4965 f4bd 3bfe f7bd
00000280: ead2 1ebe 29ae 0abe b910 29bd 575e 1bbd
00000290: 6189 ff3d 2519 5f3d c96b 063e a587 5cbc
000002a0: c618 f9bd 7e32 f1bd a5a4 0d3e c82a 003e
000002b0: cc75 19bc db16 0b3c d02d 863d 4e55 f2bb
000002c0: a935 043d 80b5 4fbe 882b 61be c252 22bb
000002d0: b681 19be 31d8 efbd 7c82 4dbe 3c6d 303e
000002e0: 21bc a1bd 2e9f 473e 636c 543b 12e8 263e
000002f0: 92b2 05be 6557 733d cde1 0a3e fae5 d03d
00000300: 46ba b83d f60c 3c3e 0f45 313e 0eca d9bd
00000310: 8d99 12bd ce19 3c3d 7b90 353e 7e28 87bd
00000320: 9baa 9e3d 74f3 523e 1490 783d 27a4 4cbd
00000330: 07b5 07bc 5049 17be 920d 0b3c 0b12 65ba
00000340: c380 883d d826 493e c9bc 2fbc 71b3 2c3d
00000350: b502 343e da2b 793d 0d8c 1bbc 1aeb 30be
00000360: 40b1 913d 37fb 8cbd 7d8a 883c 3e95 d73d
00000370: 3b19 07bc f9e1 8f3d caea 2abe eca7 0ebc
00000380: bfff 24bd bc7e dfbd d0d1 c1bd 351a b0bd
00000390: 72c9 b13d 8006 0c3e 0c7a 593d 10c6 0a3e
000003a0: 0db5 8ebd cfb3 1dbe ad85 0b3e 7145 4e3d
000003b0: d079 dcbd 3ae8 41bd 57d5 8d3c f912 2bbe
000003c0: 71f9 a03d 2b8b 37be f06f e7bd 18e3 20bb
000003d0: e294 163e 7962 0ebe 2c07 20be 4eb9 7cbd
000003e0: e87e e4bc e272 86bb 83bd 513e fbb0 0d3e
000003f0: 3ff5 f53d 5677 223e a798 533d 4b44 d03d
0.09895464 -0.1387661 0.12660746 0.08988726 0.05786835 -0.17388937 0.17111519 -0.114713654
-0.08965668 0.07385914 -0.13464369 0.024086345 -0.04119614 -0.0726322 0.06685723 -0.059888564
0.040467605 -0.05025827 -0.15576953 0.04700237 -0.1109746 0.091802135 0.06398718 -0.010429069
0.1427149 -0.08990051 -0.06330799 -0.13838662 -0.013750576 0.10734971 -0.057563618 0.1099491
-0.03692615 0.19158514 0.09075932 0.12980422 0.051694196 0.16524817 0.0033954107 0.04775674
-0.12783214 0.050782528 0.013672581 -0.05643634 0.01693901 -0.005699422 -0.039472744 0.049709942
-0.070297115 -0.047783367 -0.061133567 -0.07766255 -0.041552145 -0.04628059 -0.08234382 -0.045848858
-0.07164449 -0.10156794 -0.068362996 -0.106144324 -0.06254495 -0.06039835 -0.11982757 -0.12052159
0.09858574 -0.21637361 0.01648663 -0.14160314 0.07892089 0.07426679 0.14587542 0.17143889
0.020110752 -0.16294096 -0.15624008 0.045731816 -0.09536089 0.08120035 0.08026008 -0.148088
-0.076679274 0.091177166 0.0029889948 0.06209841 0.11131635 0.06834254 0.008725617 -0.08788263
-0.05970417 -0.0610478 -0.1082492 -0.011478952 -0.06124585 -0.10968198 0.12381282 -0.0489268
0.035613302 -0.15472704 -0.102988824 0.09871205 -0.018545784 -0.0018631106 -0.093671955 0.1887016
-0.005602813 0.026621055 0.13822226 0.22943185 -0.22088563 -0.11890646 -0.12562212 -0.1949309
-0.047271524 -0.014031472 0.09250041 0.08648407 -0.21512131 0.11524863 0.00036611318 -0.13480434
0.064930774 -0.13602912 -0.23757024 -0.15231937 0.13188097 0.08838929 0.1597275 -0.06271672
0.083566606 0.14214182 0.042187434 -0.026281072 -0.11725135 -0.07105734 0.13713531 0.089644924
0.12124737 -0.08298856 -0.16359562 0.13081181 -0.13125795 -0.18684496 -0.10287148 0.088249505
0.08566449 0.0006944856 -0.19720674 -0.1080073 0.023963025 0.13176318 0.0030094 -0.21986517
-0.016065603 0.22040737 0.032309067 0.12739885 -0.012717297 -0.07249706 -0.11933381 -0.121090375
-0.15510145 -0.13543 -0.041275714 -0.037931766 0.12477375 0.05446734 0.13127054 -0.013460075
-0.12162928 -0.11777209 0.13832338 0.1251632 -0.009366464 0.008489336 0.06551707 -0.007395423
0.032277737 -0.2028408 -0.21989262 -0.0024768566 -0.14990887 -0.11711157 -0.20069307 0.1722917
-0.07897211 0.19494316 0.0032413236 0.16299465 -0.130564 0.059409518 0.13562699 0.102001145
0.09019904 0.18364319 0.173115 -0.10634242 -0.03579097 0.045923047 0.17730896 -0.0659952
0.07747384 0.20600682 0.06068428 -0.049961235 -0.008282906 -0.1477406 0.008487122 -0.00087383454
0.06665184 0.19643724 -0.010726162 0.042163316 0.17579158 0.060832836 -0.00949384 -0.17277184
0.07113886 -0.06883853 0.016667599 0.105265126 -0.0082457615 0.07025523 -0.16691127 -0.008707028
-0.04028296 -0.109128445 -0.09463847 -0.085987486 0.08681001 0.13674355 0.05309491 0.13552117
-0.069681264 -0.15400623 0.13625212 0.050359193 -0.107654214 -0.04734061 0.017313642 -0.16706456
0.07860077 -0.17924182 -0.11300647 -0.002454942 0.14705232 -0.13904752 -0.15627736 -0.061700158
-0.027892545 -0.0041030506 0.20482449 0.13837044 0.120096676 0.15865836 0.051659252 0.10169276

transformer.0.multi_head_attention.in_proj_bias f4 [192]
00000000: 38db 03bc 06aa 663d 0df0 29bc e9c4 f3bc
00000010: a654 04bd 2556 0b3d df4f 4a3d b269 26bd
00000020: 6e17 413a 9f08 863c b5db e5b9 91ce 99bc
00000030: 7cc8 383c fa66 88bd ee0a c6bc 1243 b1bc
00000040: 0d6f 593c d3dd de3c bba7 a2bc 3750 0b3d
00000050: 8981 6d3d 6294 a63a 1f14 18bd 1056 803d
00000060: 072c 8c3d 68f1 66bc eb3f 4d3c 3fab 19bd
00000070: 46dc 36bc 5c52 573d 8a1d de3c 94e8 1a3b
00000080: 838c b0bb f2c0 133d 60ce 9bbb a42f 133d
00000090: 0e9f 103d b5e7 bcbb c1be dc3c 5c34 7fbd
000000a0: f0f9 013d 4939 1b3d 28fe 823d 0ed5 76ba
000000b0: cd6a d63b 07f8 6ebd 196d f8bb f275 a23c
000000c0: ec2a 62bd 9657 693c 3ba4 593d 5e6b 783d
000000d0: 24b5 e83c 69cc c03c 58c5 ebb8 d622 093d
000000e0: 7609 273d 3547 853d fa92 2f3d 40a3 94bc
000000f0: 8140 5ebd 1b33 cdbc 8daf c4bd ea78 30bd
00000100: f9f5 563a 7533 13bc 2cd1 7d3b 37cf 233c
00000110: 00e5 373c 6aa9 50bb ff6e 9cbb 07a5 303c
00000120: 937a 0ebb 95db 0d3c a671 743a 2025 0a3b
00000130: 9077 9ab9 c36e 513c 0b87 813b 34b1 8a3b
00000140: 55e1 a439 773f 2a3b a779 65bb acfd 293b
00000150: eea6 da3a fa87 113b bb29 db3a d6e4 7e3b
00000160: 1a60 633b 4b4e c63b a2e1 0ebb d86a da3a
00000170: dd8c eeba 38a0 393a 503b 9d3b f0ca 06b9
00000180: 0b61 fdba e42f 0a3b 3af9 56ba be17 5c3b
00000190: ea7f 2dbb 4eea 82bb 3cbd c3ba 467f e5bb
000001a0: 3051 923b a441 7fb9 bb88 0bba f526 86ba
000001b0: 39b9 e0b8 1d1e 83bb 1c00 8cba 53e6 27bb
000001c0: 1031 9b3a 8a85 8dbb 6010 72bb 0b6a f63a
000001d0: 27ff 883a 7b2e dfba e43e 45bb 4db3 2bbb
000001e0: 6077 e73b 2ebb 3abb e15f 2abb 85b7 3b3a
000001f0: e49c d6bb 9f4b 1c39 6b11 813a 0e56 003a
00000200: ca03 c53b 20e8 62bc 07d2 5ebc 060b 0c3c
00000210: a7e8 0e3b d23c e43c ff6b 9d3c 1234 a93c
00000220: 6154 e43c 3bcf 4f3b 3072 1abd b946 b23c
00000230: 5e43 d2bc 1c70 df3a 1df8 64bc c346 5abc
00000240: b2f7 eab9 b066 9ebc 0429 fa3c 3cea 1d3c
00000250: fe9c 9bbb 3213 873c 7081 a2bb b400 683a
00000260: 11da afbc d3f0 663a d1f0 863c c188 2d3b
00000270: 7c0e 113c f19d 753c 27bf f0bc d729 9cbb
00000280: f702 193c 1398 9dbc 156d b3bb 6053 193c
00000290: 3555 79bc 8a50 913c 727b ebbc 826a 29bc
000002a0: e213 79bc a57e 0dbd 15e9 9f3c 2f0c 38bc
000002b0: 6ca1 deba 84c2 afbc 0f1f 0b3d dfb9 ba3a
000002c0: 3275 7eba 5aa1 083c 44d2 90bb ce17 b4bc
000002d0: 92bc 543b a8e3 b0bb 1edb bb3c 7eb5 f83b
000002e0: b8c1 5cbb b7e9 9b3c ad6d 2d3b d6ad 033c
000002f0: 40b3 cc3c 2bc2 e2bb 1420 293b 6e0d 143c
-0.008047871 0.05631449 -0.010372174 -0.02975698 -0.03230729 0.0340177 0.049392577 -0.040628143
0.0007365857 0.016361533 -0.00043841978 -0.018775256 0.011278268 -0.06660266 -0.024175134 -0.021638427
0.0132711055 0.027205383 -0.01985537 0.034012046 0.057984862 0.0012709016 -0.037128564 0.06266415
0.06844335 -0.014095642 0.012527446 -0.03751683 -0.011160916 0.05256878 0.027113695 0.0023637163
-0.005387844 0.03607268 -0.0047548264 0.035934106 0.035307936 -0.0057649263 0.026946427 -0.062305793
0.0317325 0.03789643 0.06396133 -0.0009415903 0.0065434934 -0.058342006 -0.007581365 0.019831631
-0.055216715 0.0142420735 0.053135138 0.06064927 0.028406687 0.02353497 -0.00011242431 0.033480488
0.040780507 0.06507722 0.042864777 -0.01814425 -0.054260734 -0.025048783 -0.09603796 -0.043084063
0.0008200105 -0.008984436 0.0038729412 0.009998134 0.011224031 -0.003183926 -0.004773974 0.010781533
-0.002174054 0.0086583095 0.0009324796 0.0021079257 -0.0002946225 0.012782755 0.003952866 0.00423255
0.00031448403 0.002597777 -0.0035015137 0.0025938554 0.0016681829 0.0022206292 0.0016720811 0.003889372
0.0034694732 0.0060518137 -0.0021801968 0.0016663922 -0.001819994 0.00070810644 0.0047983304 -0.00012854836
-0.0019331289 0.0021085674 -0.000820059 0.0033583487 -0.0026473948 -0.0039952165 -0.0014933716 -0.0070036976
0.0044652447 -0.00024343148 -0.00053228036 -0.0010234999 -0.00010715653 -0.0040013925 -0.0010681185 -0.0025619462
0.0011840183 -0.0043188976 -0.003693603 0.0018799914 0.0010452018 -0.0017027402 -0.00300973 -0.00261994
0.007063791 -0.0028492915 -0.002599709 0.00071608304 -0.0065494645 0.0001490549 0.000984711 0.00048956356
0.0060124146 -0.013849288 -0.013599879 0.00854755 0.0021806152 0.027861033 0.019216536 0.020654712
0.027872266 0.0031709212 -0.037706554 0.021762239 -0.025666889 0.0017046961 -0.01397517 -0.013322535
-0.00044816505 -0.019336075 0.030537136 0.009638365 -0.0047489395 0.016488645 -0.004959278 0.00088502024
-0.021466287 0.00088096893 0.016472252 0.0026479217 0.008853551 0.014991269 -0.029388024 -0.00476573
0.009339086 -0.019237554 -0.00547565 0.009358257 -0.015218069 0.0177386 -0.028745387 -0.010340335
-0.015202494 -0.034544606 0.019520322 -0.011233374 -0.0016985363 -0.021455057 0.033965167 0.0014246068
-0.00097067945 0.00833925 -0.004419597 -0.021984007 0.003246103 -0.0053982325 0.022931632 0.007589995
-0.0033684801 0.019032342 0.0026463077 0.008037051 0.024987817 -0.0069201193 0.0025806474 0.009036405

transformer.0.multi_head_attention.out_proj.weight f4 [64, 64]
00000000: 0342 003c 1fa5 493e cb42 9cbd 7bcb a9bd
00000010: 2010 b03d 625c d3bd 06be 54be d90b 0abe
00000020: b619 d5bd 6ab0 f6bd 347e 4abd fd49 b93d
00000030: 1205 9b3d 0d1e 273d ae79 acbc 20c7 143c
00000040: ce1a 98bd 6378 ab3c 56e3 4c3d 5702 213c
00000050: d894 223d eb69 12bc 1a2a c2bb b830 7abd
00000060: 1dd0 9e3d ef9b 5b3c 8179 5f3b 6a34 03be
00000070: 9749 ea3c 60e2 ddbd d810 e9bd abb0 8ebd
00000080: 272f 3bbd 3f1a 623d 6f47 a03c a6f1 1bbc
00000090: 2bff 923d b194 a7bd 139f a03d 2c64 b23d
000000a0: 1434 993d fad0 31bd 66ab 0b3e 427d 11bd
000000b0: 875e 9b3c cc30 d1bd 01e8 273d c135 dc3d
000000c0: 9460 1fbe 2704 06be cdce a03d 66bc 193e
000000d0: f8c9 253d 715a febd ef8c 423d 2a40 1d3c
000000e0: b0f5 d2bd d1d2 053b e4ad cfbc c2ed 373e
000000f0: 9029 483d 6260 f83d 7bb4 013e aa44 d5bd
00000100: 0467 38bd 6ce5 6fbd c76b 05be ed23 29be
00000110: 769b d4bd f3bb 0cbd 1c70 9fbd 7796 6ebd
00000120: 1900 78bd 4667 2d3d ef96 083d 12eb bdbd
00000130: d2b4 893c 3b9c b13d 5437 8c3d 4ea0 5bbd
00000140: e585 0fbd 9f56 b3bd c8c4 a43c 72d5 cc3d
00000150: 7d4c 8abd 46f5 f53d f3cb 4bbd 8dab d4bd
00000160: 051b 45be b063 ce3c 4183 be3b 64a4 14bd
00000170: ccb8 fdbc a16d f03d 77ca 94bd 757b bb3d
00000180: 3db4 1fbd 4cfa 37bd 3e03 ff3d e7fa 99bd
00000190: 95ea 573d 9021 5e3d 02b2 9d3d 9871 0cbe
000001a0: 5f38 e0bd cf3f f2bb 8a0d a6bc 3210 4bbd
000001b0: fa57 8f3b a9ae 80bd 633f 013e 1f88 46bd
000001c0: 73bb 373d 48ab 153d 855c e73c a009 c43d
000001d0: e97d 083e 5704 50bd 0d40 00be 660e cabc
000001e0: ea63 c9bd b37d d9bd 81f9 533d 2955 36be
000001f0: d9be 9b3c 9df6 fabc 90b8 8cbd 2023 04bc
00000200: b78f 863d 26f1 c73d a8bb c43d 5a98 2e3d
00000210: e1c5 45bc 98d5 703c d3f4 fb3d 0a12 bdbd
00000220: 8f98 abbb 8095 40bc e74d cbbd e958 a2bc
00000230: 63da bbbd a4de 343e c29d aa3d 07f7 65bd
00000240: 72f6 183e dc07 ce3c 33a1 073d de14 ba3d
00000250: 40b9 adbd 47df 82bd cec5 053e 4107 43be
00000260: b8fb 06bd 7db1 213d 6c07 cd3d f28a c03d
00000270: 588c 073c be98 30bd 283f 0ebe 41b2 173e
00000280: 69b8 10bd 9568 3e3d b99e 22bd b617 2abe
00000290: 5bc6 8d3c 0464 573e d39e f3bd a7a3 e7bc
000002a0: a344 9d3d ec4d c0bd 83e8 9bbd a844 bc3d
000002b0: 19ed 5fbd dea8 8ebd 549c 0f3d ecc2 49be
000002c0: 6aad c63b 10e3 873d af3d f23d d6cb 4fbd
000002d0: 87c8 dabc 52e1 863d c3ef b1bd 9fb5 cdbd
000002e0: 309f ce3c 4d39 cabc 8790 fabd 92fd 95bd
000002f0: df7f f53c a23e ca3d 1515 8d3d ac4e 8dbd
00000300: 07b8 b4bd a7f5 d9bd 54b2 0ebe 1754 5cbd
00000310: 957d bfba f1cd 1dbe a3bd c8bd 99df cabc
00000320: c56d d8bd 4e52 ed3c 344b 4f3e d1b8 f7bd
00000330: 4474 fbbb aef5 2f3e d218 d63d 7cd5 25be
00000340: 74ff 2f3e 7796 553d 5ac1 f33d 3b93 b23d
00000350: e95d 87bd 0e77 f93d 932f d73d 56a5 ef3d
00000360: c389 b5bd a7a6 fb3a b2c8 9fbc 4e6a ca3d
00000370: 6a8f b6bd 905f dc3d c911 1dbe 87a1 863d
00000380: 76ac 9ebb c0ef 05bc 44e7 35bd 06ba 24be
00000390: 3d10 31bd 110c d93d dc5b a4bd e484 083e
000003a0: d8d8 3d3d b928 70bd 3a4a adbd f828 883c
000003b0: dac0 cdbd 64fe ddbc 05d1 a13c 054e fe3d
000003c0: 203b e23d 86e3 fe3d 6f90 8abc 2bf6 9a3d
000003d0: 6ba2 9cbd 1488 31bd 95f3 563d d6c7 07bd
000003e0: 6821 21be e569 98bd 1d47 13be bd42 483d
000003f0: 33be 49bc a968 8bbd 0154 363d 3aea a63d
0.007828238 0.19691895 -0.07629927 -0.08290764 0.085968256 -0.10320355 -0.20775613 -0.13481082
-0.104052946 -0.12045367 -0.049436763 0.09047315 0.075693265 0.040800143 -0.021054115 0.009080678
-0.074269876 0.020931428 0.050021492 0.009827218 0.03969273 -0.008936386 -0.005925429 -0.061081618
0.07754538 0.013403877 0.0034099522 -0.12812963 0.028599543 -0.10834193 -0.11380166 -0.069672905
-0.045699265 0.05520081 0.019565312 -0.009518063 0.07177576 -0.081826575 0.07842841 0.087105125
0.07480636 -0.043412186 0.13639602 -0.035519846 0.018965973 -0.102143854 0.04099274 0.1075244
-0.15564185 -0.13087521 0.07851944 0.15013275 0.040475816 -0.12419594 0.047497686 0.009597817
-0.103007674 0.0020419846 -0.025351472 0.17961791 0.048867762 0.121277586 0.12666504 -0.10413487
-0.04502012 -0.058568403 -0.13029395 -0.16517611 -0.10381214 -0.03435893 -0.07785055 -0.058248963
-0.060546968 0.042334817 0.033347066 -0.09273352 0.016809855 0.08672377 0.068464905 -0.053619675
-0.0350398 -0.08756756 0.020113364 0.10001649 -0.0675287 0.12009673 -0.049755048 -0.10384283
-0.19248588 0.02519402 0.0058139865 -0.036289588 -0.030971907 0.1173966 -0.072651796 0.09154407
-0.038990248 -0.044916436 0.1245179 -0.07518559 0.05271395 0.054231226 0.07699968 -0.13715208
-0.10948252 -0.0073928605 -0.020270128 -0.049575992 0.0043745013 -0.06283314 0.12621836 -0.04846966
0.0448565 0.0365403 0.028242359 0.09572148 0.13329281 -0.05078539 -0.12524433 -0.024665069
-0.0983351 -0.10619678 0.051751617 -0.17805924 0.019011902 -0.030635173 -0.0687114 -0.008065015
0.0657038 0.09762792 0.09606105 0.042625763 -0.012071104 0.014699362 0.12302556 -0.09231956
-0.0052366923 -0.011754394 -0.09926968 -0.019817786 -0.09172513 0.17663056 0.08330871 -0.056143787
0.14937761 0.025150232 0.033112716 0.09086011 -0.08482599 -0.06390243 0.13063738 -0.19045736
-0.0329549 0.039475907 0.10011181 0.09401502 0.008273207 -0.043114416 -0.1389128 0.14814092
-0.035332117 0.046486456 -0.03970215 -0.16610608 0.017306497 0.21034247 -0.11895528 -0.028276278
0.07679107 -0.093898624 -0.076127075 0.09192783 -0.054669473 -0.069658026 0.035061195 -0.19703263
0.006063153 0.066351056 0.118281715 -0.050731502 -0.026706947 0.06585945 -0.08688309 -0.10044407
0.02522239 -0.024685526 -0.12234598 -0.07323755 0.0299682 0.098752275 0.06888787 -0.06899771
-0.08824163 -0.106425576 -0.13935214 -0.05379113 -0.001460957 -0.15410592 -0.09801795 -0.024764823
-0.10567812 0.02896991 0.20243531 -0.12095798 -0.007673772 0.17183563 0.10453953 -0.16194719
0.17187291 0.052145448 0.11902113 0.08719488 -0.06609709 0.12180911 0.10507121 0.11701457
-0.088641666 0.0019199447 -0.019504879 0.09883557 -0.08914073 0.107604146 -0.15338816 0.06573778
-0.0048423363 -0.008174837 -0.044410005 -0.16086587 -0.043228377 0.105980046 -0.08025333 0.13331944
0.046349376 -0.058632586 -0.08461423 0.016621098 -0.10046549 -0.027098842 0.019752989 0.12417225
0.110464334 0.124457404 -0.016914574 0.07566484 -0.07648166 -0.043342665 0.05247839 -0.033149563
-0.157354 -0.07442073 -0.14382596 0.04889177 -0.012313413 -0.06807072 0.044513706 0.08150144

transformer.0.multi_head_attention.out_proj.bias f4 [64]
00000000: d2a4 883b cbd4 e1b9 edec 77bc 008e fdbc
00000010: 6d0c 8d3d e08d 7abd 2bbd 513d 5d3e 623c
00000020: 07c9 cc3c 8e67 e43b d1d2 aebb c9b3 18bd
00000030: 2750 2bbd 37b1 493c ced2 07bc 9ecc 853b
00000040: 832e 0bbc ef3d 7f3c ec01 f6bc 8f59 cebc
00000050: 6973 27bc 85d4 453d f145 69bc 9706 9f3c
00000060: 7047 d03c 4117 d3bc 7f65 d0bc 4ac3 f9bc
00000070: 4f23 15bd d714 233d f9e3 073c 5529 a53c
00000080: 2976 01bc 05b6 88bb df06 23bb e9c0 ac38
00000090: 01bd db3b bc72 cf3a e326 b93c 4024 993c
000000a0: f40b 523c a331 23bd fbda 273d a31c 113d
000000b0: 7e3e 9bbd 0cd3 373c 5d12 bfbc ce6b aa3b
000000c0: d78a 36bb cf42 10bc e2d5 a5bb 0601 1b3c
000000d0: 7d63 533c eb45 0e3c 2ce2 183d c86e dfbb
000000e0: 4eb1 643b f16c 083c 4ede 0db9 aa51 09bd
000000f0: 8d1f 4a3c 5cbe caba 5bbf 2cbc ef44 05bc
0.0041700387 -0.00043073887 -0.015132171 -0.0309515 0.06887136 -0.06117046 0.051205795 0.013808814
0.024998201 0.0069703525 -0.00533519 -0.03728083 -0.041824486 0.012310318 -0.008290006 0.00408323
-0.008494976 0.015578731 -0.030030213 -0.02518919 -0.010220387 0.048298378 -0.014237867 0.019412322
0.025424689 -0.025767924 -0.025439022 -0.030488629 -0.036410626 0.039814796 0.008294099 0.02016131
-0.007901707 -0.004172089 -0.0024875922 8.2375314e-05 0.0067058806 0.001582704 0.02260155 0.018694043
0.012820233 -0.03984226 0.04098032 0.0354277 -0.07580279 0.011219751 -0.023324186 0.0052008396
-0.002785375 -0.008804991 -0.005060897 0.009460693 0.012902138 0.008683662 0.03732507 -0.006818626
0.003489572 0.008326755 -0.00013529623 -0.033525147 0.012336624 -0.0015468108 -0.01054367 -0.008134111

transformer.0.mlp.0.weight f4 [128, 64]
00000000: 8bfa f6bd fbe4 edbc a8f9 373d 8d1b 963d
00000010: 8282 fcbb 4e84 0d3e f500 c03b b12d 0e3c
00000020: f3c1 8cbd 086e 0ebe 0915 ea3d 52c0 163c
00000030: 4427 13bd 94f9 89bd 8e61 e5bd bca9 aebd
00000040: a9e2 313e 828a ae3b 38eb 463e 23b0 bf3d
00000050: 8bdd 57bd c8df adbd 41f1 ef3c 7487 a2bd
00000060: 0246 11bd 19df 953c 9c8c 4c3d cf14 ab3d
00000070: 7e85 e73d 8e86 1a3e d571 bf3d 2bce 8cbd
00000080: cee1 253e 8355 283e 4e2c f13d 7c9f 11be
00000090: 7e95 b33c 818c 023e 95ea d9bd bebb 38bd
000000a0: 60fb 023e 2aab c0bb 0987 353e a8e5 64bd
000000b0: de81 5d3d f0a7 aebd 9e57 d5bd 1664 473d
000000c0: 0e01 203e 5897 1d3d c53a 003e b841 0dbe
000000d0: 2c0f 3bbc 9af2 50bd 4e3a ce3d cb19 a83c
000000e0: e3be 1dbe 598b a13d ab66 af3d 9bc0 193e
000000f0: 451d e53d 37ce e9bc 5fa6 013d e591 843d
00000100: 29d7 d4bd 3b89 cd3d 5bde 5dbd d8e7 153e
00000110: 0448 0f3e 16a3 3d3d a665 1b3e 1715 a6bd
00000120: 6662 343e 25b7 923d fae5 99bd 0c7c e5bd
00000130: b641 723d 4e05 24bc e0bc 12bd b433 bebd
00000140: eaa2 473c 7c9d 6e3d 21a8 5e3d 1536 7a3d
00000150: 5741 d0bd f882 0e3e a25d d73d bbeb 393d
00000160: 5f56 52bd 5eed e93d 7405 ea3d feea 113e
00000170: 5be7 f43d 1564 e4bd cfa4 91bd b966 f7bd
00000180: 7764 3c3e 292c 3d3e 32f2 38bc fbb2 8a3d
00000190: 64f0 e6bd 8346 c53d 32ac 07be 49f5 55bd
000001a0: 6b25 45be 0c47 9e3d 0128 f7bc c675 5fbd
000001b0: d633 94bb d384 64bd e323 37bd 37a6 fabc
000001c0: 61ae 1c3c f536 4d3c a52c b43d b3f7 82bd
000001d0: ef5d a03d 6975 3ebd a2ca 49bc 8605 a73d
000001e0: 76fe 05be 1a9e 2dbe d1a6 503d f86c 3e3d
000001f0: e64e b8bd a3a2 7b3b c6b1 c0bd 163c ea3d
00000200: 05aa 97bd 4503 32bb 2116 ecbd eb51 393d
00000210: af9d 45bc 55e6 0b3e 0d63 1f3b 72fb aebd
00000220: a715 36bd fb03 3ebd 72d5 8dbd 339a 77ba
00000230: 8d65 783c a7fc 953c 038a 85bd b86c f93d
00000240: c941 febd 9005 133d 676f 203e 4673 573d
00000250: 0368 3f3d 0f6d c8bd 1901 a7bd 70be d7bd
00000260: 43d7 2d3c aaed 0a3d eaa0 52bd e3a2 dc3d
00000270: e589 d33d 698b c73d f0f9 72bd 7bcb 24bc
00000280: bff5 8c3c cfbf 063e 8243 bb3d 5457 9cbc
00000290: 6e62 10bc 1d30 47bd 4480 8b3c 36fa aa3d
000002a0: 6b5f a4bd 6876 583d b152 3a3c 826c cfbd
000002b0: 9c16 433d 2c4d d6bd d151 9f3c 07a8 033e
000002c0: a0d8 06be 8eda f5bc f63a 43bc 60f0 c0bd
000002d0: 875b d53d 03cc c4bc 5b38 9c3d 9979 053d
000002e0: 279d f5bd a5e1 61bd ce50 52bd 41aa c53d
000002f0: f5ac 293d 3ebf 093c 400a 9fbd 17e3 333e
00000300: 5eb5 a5bd 98a6 d4bd 6c68 a73d 82e5 b23d
00000310: 879d 9bbd 5bcd ebbd f14e 32bd e62d 11bc
00000320: f2ce 36bd 66ae 2dbe eddb dbbc a6d2 ddbd
00000330: 62e5 3dbe 252c f93b 343b 323e 1711 e5bd
00000340: 4f86 85bd bf85 febd 5d9f da3c bdb2 dbbd
00000350: e285 f33d 2fbc fdbd d3e3 b13d 79f9 09be
00000360: 609a 863d a2e8 adbc 7ba0 18bd 5cf8 763b
00000370: 6769 f3bc 6f40 4b3d ff3f 5a3d f387 a43d
00000380: d10f ad3d f10f 243e bcac 043e e0a3 09bd
00000390: bd3d 953d 51a7 be3d 228c 3d3d b5be c33d
000003a0: a184 773c ff84 513d 790b 413d c9b0 44be
000003b0: c5ba b73c 90ea 9d3d afc5 b63c f9e9 743d
000003c0: 826f 813d 02a5 a93d 0ccb c63d 0b1f d1bd
000003d0: b2de 7cbd a720 0f3d bb5f bebd eab5 d23d
000003e0: 2730 82bd dfcd c8bd 1f9e aebc 3370 8ebd
000003f0: 9c5f 1cbe a98e 0e3b bcdd 8cbd 3992 94bd
-0.12059506 -0.02903985 0.044915825 0.07329474 -0.0077059874 0.13820001 0.005859489 0.008677886
-0.068729304 -0.13909161 0.114297934 0.009201126 -0.03592612 -0.067370564 -0.11200248 -0.08528468
0.1737162 0.00532657 0.19425666 0.09359767 -0.052701514 -0.084899485 0.029289844 -0.07935992
-0.035467155 0.018294858 0.049938783 0.08353578 0.113047585 0.15090391 0.093478836 -0.06875261
0.16199419 0.1643887 0.117760286 -0.14220995 0.02192187 0.1274891 -0.10640446 -0.04510092
0.12791204 -0.0058797793 0.17727293 -0.05588308 0.05407893 -0.08528125 -0.10417102 0.048679434
0.15625402 0.03847441 0.12522419 -0.13794601 -0.0114171915 -0.051012613 0.100697145 0.020520112
-0.15404849 0.078879066 0.08564504 0.1501488 0.11187223 -0.028540714 0.031652804 0.0647314
-0.10392601 0.1003594 -0.054167133 0.14639223 0.13992316 0.04629811 0.15175495 -0.08109491
0.17615661 0.07163838 -0.07514568 -0.11205301 0.059144698 -0.01001103 -0.035824656 -0.09287205
0.012184838 0.058255658 0.05435956 0.061086733 -0.101687126 0.13917148 0.10515906 0.045390826
-0.0513519 0.11422227 0.11426821 0.14249799 0.1195819 -0.11151902 -0.07111513 -0.1208014
0.183977 0.18473877 -0.011288213 0.06772419 -0.112763196 0.0963259 -0.13249281 -0.052235875
-0.19252555 0.07728395 -0.030170443 -0.054555677 -0.004522781 -0.055790734 -0.04471196 -0.030596836
0.00956306 0.01252531 0.08797578 -0.06394901 0.078304164 -0.04649869 -0.012316378 0.081553504
-0.1308535 -0.16954842 0.05094034 0.04649064 -0.08999424 0.00383965 -0.094089076 0.11437242
-0.074054755 -0.0027162593 -0.11527658 0.04524414 -0.0120615205 0.13662083 0.0024320513 -0.08544053
-0.044454243 -0.046390515 -0.06925477 -0.000944528 0.01516093 0.01830895 -0.06520464 0.121789396
-0.12414891 0.035893977 0.15667497 0.052600168 0.046730053 -0.09786426 -0.08154506 -0.1053437
0.010610404 0.03391806 -0.05142299 0.10773256 0.10329036 0.09743387 -0.05932039 -0.010058279
0.017207025 0.13159107 0.091437355 -0.01908461 -0.00881253 -0.04862987 0.017028935 0.08348505
-0.08026012 0.052847296 0.011372254 -0.10128118 0.047628984 -0.10463938 0.019448193 0.12857066
-0.13168573 -0.030011442 -0.011915913 -0.09420848 0.10417848 -0.024023062 0.076279365 0.032586668
-0.11992865 -0.055146832 -0.051346593 0.09651614 0.04142471 0.008407412 -0.07765627 0.17567097
-0.08091234 -0.10383338 0.08174214 0.087351814 -0.07598405 -0.11513778 -0.043532316 -0.008861041
-0.044630952 -0.16961059 -0.026838267 -0.108311936 -0.18544534 0.0076041394 0.17405397 -0.111849
-0.06519758 -0.12427854 0.026687318 -0.10727451 0.118907705 -0.12389409 0.08686032 -0.13474073
0.065724134 -0.021229092 -0.03726242 0.0037684655 -0.029713346 0.049621996 0.053283688 0.08033743
0.08450282 0.16021706 0.12956518 -0.03360355 0.07287166 0.09309257 0.04627622 0.09557859
0.015107305 0.051152226 0.04713008 -0.19208063 0.022427926 0.07710755 0.02231106 0.059793446
0.063200966 0.08283426 0.09706697 -0.10210999 -0.061735816 0.03494325 -0.09295603 0.102886036
-0.063568406 -0.09804892 -0.021315632 -0.06954994 -0.15270847 0.0021752513 -0.0687823 -0.07254452

transformer.0.mlp.0.bias f4 [128]
00000000: fa77 71bd 2c70 9cbd ca4a 78bd 9310 8cbd
00000010: bfbd 51be 23f8 75be 0bdf bdbb 769c 2dbe
00000020: 6968 f6bb e068 57be 83cf d9bc 1ffb 5cbe
00000030: 551f 2bbe 15da babd 0baf 22bc d49f 49be
00000040: 6933 42be b22c 02bc 88d4 5ebd 86cd 433c
00000050: 22c3 fcbd fd33 21be b257 19be 4366 3abe
00000060: d659 bdbc 52e1 b1bd 3623 44be ec29 d0bd
00000070: c529 913d 2003 12be b226 983d b795 efbd
00000080: 5a16 69bd db35 20be 78c9 8c3c feaf ef3b
00000090: d864 b5bd d8b4 40be e976 10be 908d eb3b
000000a0: b3cc 83bd 8fd4 bebd 37b8 d7bb 400d 04be
000000b0: 941a 6abc 70a6 5bbe b8e6 06be 6167 34be
000000c0: 53f0 9fbc 3d90 38bd bfde d0bd 004b feb9
000000d0: 4a77 4abe 55d2 67be 2462 80bd 379f 22be
000000e0: 02e2 c6bd 76d2 6cbc 86c7 52be d34f 93bd
000000f0: 604a 20be def4 30be c566 34be cbdc 01bd
00000100: da87 a63c 44df debd 6b50 bdbd a67e 12bd
00000110: 16dd 10bc 4274 59bd 1f15 773c 2ead bdbd
00000120: 1ea1 133d 4de1 acbd 7897 3bbe b7f1 1abe
00000130: 2da0 a9bd b0e3 3bbd 52c4 32be 7e0e a0bd
00000140: 2ee7 cebb d39f e5bd 1326 03be aa74 e6bd
00000150: 3934 afbd ff60 20be 7692 1e3d 9d71 25bd
00000160: 7f6a 2f3c a0ee cebd 8f4d 07be 2511 e13b
00000170: be43 18be 5321 8dbd dc90 a9bd d76a 24bb
00000180: cd6b a939 b6e3 9dbd 85d7 3ebd 7957 97bc
00000190: 2194 1e3d a3fc 26bd e0d7 dcbd c62f b53c
000001a0: 1d7a 13bd 8e08 3cbe ae12 06be 6252 fbbd
000001b0: 5beb 3abe 3ac4 ed39 cf77 29be 2401 5f3d
000001c0: 454b 0bbe ca1d 69bd dc02 0dbe 5a9e 143d
000001d0: 09f9 45bd c8c2 cebc a353 28be 283a 5fbd
000001e0: 4737 00be 7784 39bd 7433 abbc ab4f a8ba
000001f0: 6dfa f7bd 5d5b c2bd 9943 9ebd 786e afbd
-0.05895231 -0.076385826 -0.0606182 -0.06839099 -0.20482539 -0.24020438 -0.005794411 -0.16954216
-0.007519771 -0.210361 -0.026588207 -0.2158017 -0.16711171 -0.09123627 -0.009929429 -0.19689876
-0.18964924 -0.0079452265 -0.054401904 0.011950856 -0.12341906 -0.15742488 -0.1497486 -0.18203072
-0.023114126 -0.086855546 -0.19154057 -0.10164246 0.07088045 -0.14259005 0.074292555 -0.11698478
-0.05690608 -0.15645544 0.017185912 0.007314681 -0.08857125 -0.18818986 -0.1410786 0.0071885064
-0.06435528 -0.09317886 -0.0065832394 -0.1289568 -0.014288563 -0.2145021 -0.1317395 -0.17617561
-0.019523775 -0.04505943 -0.101987354 -0.00048502535 -0.19772068 -0.22638829 -0.06268719 -0.15881048
-0.09711076 -0.014454475 -0.20583925 -0.0719296 -0.15653372 -0.1728091 -0.17617328 -0.031704705
0.020328451 -0.10882428 -0.09243854 -0.035765313 -0.0088417735 -0.053089388 0.015080719 -0.09261547
0.036042325 -0.0844141 -0.183195 -0.1513127 -0.08282504 -0.045871437 -0.17457703 -0.07815264
-0.00631418 -0.11212125 -0.12807493 -0.11252721 -0.085548826 -0.15662001 0.038713895 -0.040391553
0.010706543 -0.10104108 -0.1321318 0.006868499 -0.14869592 -0.06891122 -0.08279583 -0.0025088096
0.0003231451 -0.07709448 -0.046592254 -0.018474327 0.038715485 -0.040768277 -0.107833624 0.022117507
-0.03600513 -0.18362638 -0.13093063 -0.12271573 -0.18253843 0.00045350363 -0.1654961 0.054444447
-0.13602932 -0.056913175 -0.13770622 0.03628383 -0.0483332 -0.025239363 -0.16438155 -0.05449882
-0.12521087 -0.045292344 -0.020898558 -0.0012841126 -0.12108312 -0.094900824 -0.07727737 -0.08565992
